data.pth (torch, 3967 bytes, 6 tensors)

l1.weight f4 [8, 31]
00000000: 0032 0dbe 6b26 c0be a705 2d41 f3c0 4341
00000010: 26f0 c4be 0429 ba3e 9816 153f 971a e93b
00000020: 23c3 8c3d aeb2 9fbe 07c7 f33e 0e0f c43e
00000030: 9e37 a33e 122b 8b3e e31b ba40 a1d4 a1bd
00000040: a4b9 52be cc03 c3be aed3 a6bd 18db 6e3d
00000050: 452d ccbe 07ac a540 ab53 933e aaee 44bb
00000060: 2ad9 253e 34a0 2b3f 9d57 bfbe ee70 5b3e
00000070: 637f c9be b9ef a0bd c928 c0be 543c 4cbc
00000080: 0edd 86be a39a 3441 f324 5041 7388 d6be
00000090: a51a f73d caa7 c2be 3cc2 54be 33c0 94bd
000000a0: 7de6 b03e 0931 4b3f a11b 083f 4ce5 6d3e
000000b0: ce27 ab3e e66b ac3e 970f df3e 8c1c 90be
000000c0: e04b f03d edc2 823d 6e0e e5bd 851e e2be
000000d0: 57a2 d03f 7271 d53d 5d20 af3e 21ab 433e
000000e0: d148 efbd 6ec2 9ebe e63c b43c 38aa 943f
000000f0: cc8f d7be 4496 d3be 00f4 513a 9020 99bd
00000100: 68c4 e0bc 4e7a 1e3e eac2 15be 9866 723d
00000110: db6e e1bd 2e10 103e 3433 bd3d 2c5c 1b3e
00000120: c801 1dbd 5285 23be 92a8 2fbe a4bc 47bd
00000130: 0413 213e 50ca f6bc 8600 183e c4c7 263e
00000140: 6a23 1dbe 80df 31be 7c26 45bd 6465 183d
00000150: f0a4 b23d 9c9d db3d 4099 0ebc a0f5 c0bb
00000160: 0353 95bd e0b1 023e 2285 c0bd 7459 0cbe
00000170: c4fe 1cbe 01eb c9be 6d92 f53f 7869 a840
00000180: 7302 bb40 1656 3741 0a0c d3bd 2cd4 193f
00000190: 5e98 0a3f d3a4 d1be 1809 e23d 77b6 cf3e
000001a0: 9ed8 d6be c1d6 cabe a669 d8be bab3 1e3f
000001b0: 958f bd3e 781b fdbd d3f5 c7bd 6f71 cebe
000001c0: 737e b53d cba0 cfbe c626 0840 4a51 833c
000001d0: fb1a bb3e 25c6 f73e 31b6 cfbe 3e2b d3be
000001e0: fcda 88be a2d3 ccbe 1ee1 76bc e6ee 4b41
000001f0: a2fb e43e 76bc 1040 82b3 f440 3747 0241
00000200: d33f 1641 c9ef 363e 063c d43e 1a33 d0be
00000210: 6b28 53bc a6d5 c2be ccd1 0bbe b42e 423e
00000220: 67c8 063f 34c1 c9be 4d6d 513f 3f1a 44be
00000230: 1c51 6b3e e191 ecbc 35e2 053d 10fb f2bd
00000240: 73ea c2be 140b 243e ffca e6bc 65f4 babe
00000250: 9c87 a7be 0290 4b3f e749 5940 5007 9c3d
00000260: 443a a53f 9810 cfbd 1f6e c8be 13d8 8cbe
00000270: a780 773f 35c5 84be 6e71 8fbe e609 1c41
00000280: 3673 993d a2a5 bc3e dcdc 94be c7c7 03be
00000290: 798e 85be 5031 d5bc fc44 95be 55b8 0ebe
000002a0: 3d99 94be 1379 8b3f 0593 82be a36b 5d3e
000002b0: 9386 ab3e c216 88be c9b2 ce3e 6b84 4d3e
000002c0: 5b78 993f 682f 02be 0d79 ba3d 0369 033d
000002d0: 5b9c 5f3e 4d72 86be 0e5f 7abe a62a 87be
000002e0: 5ec4 e43e a018 94be 734b 26be a23c 6b40
000002f0: 29ff 1240 09d8 8e3f bf38 4d41 c65b 2ebe
00000300: e808 7a3e 7b39 1b3e 8e61 c5bc c1d1 31be
00000310: ee97 f83e 6309 2abe 7e86 67bd 4ad1 28be
00000320: 482d 923f d36e 3ebe 9843 e13b f28e 27be
00000330: 1a56 43bd 1285 2bbe 917a 20be 99fb 7240
00000340: 6a19 443e 8f9e 873e cdba 2e3f 2e9a 0a3c
00000350: bf88 2dbe d96f 933d f776 37be fa8b 32be
00000360: 73a1 2cbe 21d0 97bc 60c9 5d3f f821 3441
00000370: e89e 4f41 35a9 bcbe 732d 98bd c056 a2be
00000380: 4018 bcbe 8103 aa3c 83ac c43e 5376 8b3e
00000390: 2485 fe3e 9860 223e aa6b 4e3d fb57 9dbe
000003a0: 0bb5 133f 27ea aebe fd24 acbe c603 c53d
000003b0: 49b5 b5bd 8eac b9be 077f ec3e 53f2 873e
000003c0: 2a4f c13d 4bdc 91bd 4137 f3bd 2cbd 4a40
000003d0: 4ac8 4dbd 6e00 af40 f101 b4be b300 c4be
-0.13788605 -0.3752931 10.81388 12.234607 -0.3846447 0.36359417 0.582376 0.0071137655
0.06873157 -0.3119101 0.47612783 0.38292736 0.3187837 0.27181298 5.815904 -0.07901884
-0.20578629 -0.38088834 -0.081458434 0.058314413 -0.39878288 5.1772494 0.2877477 -0.0030049481
0.16196123 0.67041326 -0.3737153 0.21429798 -0.39355 -0.078582235 -0.37531117 -0.012465555
-0.26340526 11.287753 13.009021 -0.41900977 0.12065629 -0.38018638 -0.2077722 -0.072632216
0.3455085 0.79371697 0.5316716 0.23232001 0.33428806 0.3367607 0.43566582 -0.2814678
0.11733222 0.063848354 -0.11184393 -0.4416391 1.6299542 0.104220286 0.3420438 0.19108249
-0.116838105 -0.31007713 0.022001695 1.1614447 -0.42101896 -0.4132558 0.0008009076 -0.07476914
-0.027437404 0.15476343 -0.14625135 0.059179872 -0.11007472 0.14068672 0.09238282 0.1517188
-0.038331777 -0.15968826 -0.17154148 -0.048763886 0.1572991 -0.030125767 0.1484395 0.16287142
-0.1534554 -0.17370415 -0.048132405 0.03720607 0.087228656 0.10723421 -0.00870353 -0.005888656
-0.07291224 0.12763166 -0.09400393 -0.13705999 -0.1533156 -0.39437106 1.9185311 5.2628746
5.844049 11.458517 -0.10305031 0.60089374 0.54138744 -0.40946063 0.11036891 0.40568897
-0.4196214 -0.3961697 -0.42268103 0.6199299 0.37023607 -0.12358755 -0.09763684 -0.40320918
0.08862009 -0.40552363 2.1273665 0.016029973 0.36544022 0.4839336 -0.4056869 -0.4124393
-0.26729572 -0.40005213 -0.015068321 12.745825 0.4472323 2.2615027 7.6469126 8.142386
9.390582 0.17864908 0.41452044 -0.40663987 -0.012888054 -0.38053626 -0.1365425 0.18963128
0.5264954 -0.39405215 0.81807405 -0.19150637 0.2298016 -0.028878154 0.03268643 -0.118642926
-0.38069496 0.16019851 -0.028172968 -0.36514583 -0.3272065 0.79516613 3.3951356 0.07618582
1.2908406 -0.10110587 -0.39146516 -0.27508602 0.9668068 -0.25931707 -0.28016227 9.752417
0.07492678 0.36845118 -0.29074752 -0.12869178 -0.2608526 -0.02602449 -0.29154193 -0.13937505
-0.29023162 1.0896324 -0.25502792 0.21623091 0.3350111 -0.26579863 0.40370777 0.20070045
1.1989855 -0.12713397 0.0910512 0.03208257 0.21836989 -0.2625908 -0.24450323 -0.26399726
0.44681066 -0.28925037 -0.16239719 3.6755757 2.2968237 1.1159679 12.826354 -0.17027196
0.2441746 0.15158646 -0.02409437 -0.17365171 0.48553413 -0.16605143 -0.056524746 -0.16486087
1.1420069 -0.18596964 0.006874513 -0.16363123 -0.047689535 -0.16749981 -0.15671755 3.7966063
0.1915032 0.26488158 0.68253785 0.008459611 -0.16946696 0.071990676 -0.17916475 -0.1743621
-0.16858463 -0.01853186 0.866354 11.258293 12.976295 -0.36847845 -0.07430544 -0.3170681
-0.3673725 0.020753624 0.38412866 0.27238712 0.49710953 0.1585716 0.050395645 -0.30731186
0.57698125 -0.3416302 -0.3362197 0.0961986 -0.08872468 -0.3626446 0.46190664 0.26552066
0.094389275 -0.07122096 -0.11875773 3.1677961 -0.05023984 5.4688025 -0.3515773 -0.38281783

l1.bias f4 [8]
00000000: 26c8 b83e 41df b83e e488 35be 5efb bd3e
00000010: 1eee 983e 2f35 683e a2f0 173e a0cd 973e
0.360902 0.3610783 -0.17728001 0.3710584 0.2986917 0.22676538 0.14837888 0.29649067

l2.weight f4 [8, 8]
00000000: 777a d1be f69b e9be 8825 9cbe d5c4 c53e
00000010: 6e08 623f 86f4 8b3e 5dc2 783f 0e09 bd3e
00000020: 18dd 633e 4e20 d0bd a23c 2bbe d15e eebd
00000030: 2334 82be 64d2 96be c1f1 44be 853d fb3b
00000040: d5c7 a33e 6aeb 8dbe 1411 79be 2fbd e3be
00000050: e76c 473f f63e 793e 6473 d6be cb6d 80be
00000060: 0cc7 88be ac21 993d 8d17 b33e 52ac 40be
00000070: 6824 5e3d 5291 453e fce1 40be 8879 89be
00000080: 6af1 5dbd 1a4d 2dbf 04e6 f3bd a2a9 873f
00000090: d76b 323e 581e 98be d827 8bbe f8d7 d0bf
000000a0: 3846 663f b978 a53e 00c8 b63c 86e8 253f
000000b0: cb10 623d da7b 4c3e 6f37 573f d8db edbd
000000c0: 3c63 a33e 120e 493e 03cd 813e d43e c4be
000000d0: a78f 6d3f 10a8 c1be db83 59be 7dea 273f
000000e0: b072 42bd 80e3 05bd 2bb2 893e ff1d 09be
000000f0: 508e 10be 709c 83bd a6fb 4fbe 3b82 92be
-0.40913746 -0.456268 -0.30497384 0.38626733 0.8829411 0.27334994 0.97171575 0.3692097
0.2225231 -0.10162412 -0.16722348 -0.116391785 -0.25430402 -0.2945739 -0.19232847 0.007667246
0.31988397 -0.2771867 -0.24322921 -0.44480273 0.77900547 0.24340424 -0.4188491 -0.25083765
-0.2671436 0.074771255 0.34978905 -0.18815735 0.05423394 0.19293717 -0.18836206 -0.26850533
-0.05418531 -0.6769577 -0.119091064 1.0598643 0.1742395 -0.2971065 -0.27178836 -1.6315908
0.89950895 0.32318667 0.022312164 0.6480793 0.055191796 0.1996912 0.8406896 -0.116141975
0.31911647 0.19634274 0.25351724 -0.38329184 0.9279732 -0.37823534 -0.21241705 0.65592176
-0.047472656 -0.032687664 0.26893744 -0.13390349 -0.14116788 -0.064263225 -0.2031084 -0.28614983

l2.bias f4 [8]
00000000: fb4d 09bf dd46 8ebe 3fa4 073f c79e 2dbe
00000010: db9a c73d 8d7d 9e3c 6f67 1a3e 20e9 23bc
-0.53634614 -0.2778844 0.52984995 -0.169551 0.09746333 0.019346977 0.1507852 -0.010004312

l3.weight f4 [8, 8]
00000000: f768 b7bf 02c4 a6be 57c0 063f 91ee 4bbe
00000010: 321a 8f3b a9c1 6a3e f6c6 b1be 77b4 af3e
00000020: 4382 27bf dc85 583e c59a 4a3f 5a76 5c3e
00000030: 510c 3ec0 f5e9 a7bf a792 1bbe e9d1 933e
00000040: 6da9 0d3e 04c6 dabd 6baa 8bbf 1ef5 503e
00000050: f3a8 4d3f 06eb 79bf 5fdd 013f 6a87 7d3e
00000060: 18f6 94be 9262 67be f9e1 293e 38a0 49bd
00000070: ed83 febe e1e2 bd3e 60ce a5be e9c9 a53e
00000080: e844 e9bf 4231 95be affe 4ebf da05 553e
00000090: 8c14 893e 8c38 f7bd 2b79 e33d 85d8 04be
000000a0: 9919 233e 2cf5 9abe b310 103e 0082 30ba
000000b0: f268 57be 70ed 78be 4e99 533e 1d72 54be
000000c0: 885c fcbd af4e 76be c238 95be c3ec a43e
000000d0: 1ccd 77bf fcd4 4f3e f4ed 053f 74fb cd3d
000000e0: 63d1 cc3e 19dd f9be a495 81be 756c a33e
000000f0: b612 bdbe f3e6 2bbe 308e 03bf 809d 77bb
-1.4328908 -0.32571417 0.5263724 -0.19915225 0.0043671364 0.22925438 -0.34722108 0.3431737
-0.6543314 0.21144813 0.7914241 0.21529523 -2.9695017 -1.3118273 -0.15192662 0.28871086
0.13834162 -0.106823 -1.0911382 0.20406005 0.8033592 -0.9762424 0.5072841 0.24758688
-0.29094005 -0.22596195 0.16590108 -0.049225062 -0.49710026 0.37087157 -0.32384014 0.32380608
-1.8224154 -0.29139143 -0.80857366 0.20803013 0.2677349 -0.12071332 0.11107095 -0.1297322
0.15927733 -0.30265176 0.1406887 -0.00067332387 -0.21036127 -0.24309325 0.2066395 -0.20746656
-0.123223364 -0.24053453 -0.29144865 0.32211885 -0.9679735 0.20296091 0.5231621 0.100577265
0.400035 -0.48801497 -0.2530948 0.31918684 -0.36928338 -0.16787319 -0.51388836 -0.0037783086

l3.bias f4 [8]
00000000: 9299 03bf 3f6d 4bbf 2dad 693e 17b9 07be
00000010: fa5b 8c3e dacc 20bf fe02 253f 66a7 4b3c
-0.51406205 -0.7946357 0.22819968 -0.132542 0.27413923 -0.6281258 0.6445769 0.012430048
